…
2024-07-07 14:06:11,197 - eeg: torch.Size([66160, 17, 250])
2024-07-07 14:06:11,199 - label: (66160,)
2024-07-07 14:06:11,200 - img: (66160,)
2024-07-07 14:06:11,200 - text: (66160,)
2024-07-07 14:06:11,201 - session: (66160,)
2024-07-07 14:06:13,718 - eeg: torch.Size([66160, 17, 250])
2024-07-07 14:06:13,719 - label: (66160,)
2024-07-07 14:06:13,719 - img: (66160,)
2024-07-07 14:06:13,720 - text: (66160,)
2024-07-07 14:06:13,720 - session: (66160,)
2024-07-07 14:06:14,437 - train num: 661600, test num: 2000
2024-07-07 14:06:15,324 - eeg_model:Autoencoder(
  (patch_embed): PatchEmbed1D(
    (proj): Conv1d(17, 512, kernel_size=(25,), stride=(25,))
  )
  (blocks): ModuleList(
    (0-23): 24 x Block(
      (norm1): LayerNorm((512,), eps=1e-05, elementwise_affine=True)
      (attn): Attention(
        (qkv): Linear(in_features=512, out_features=1536, bias=True)
        (attn_drop): Dropout(p=0.0, inplace=False)
        (proj): Linear(in_features=512, out_features=512, bias=True)
        (proj_drop): Dropout(p=0.0, inplace=False)
      )
      (drop_path): Identity()
      (norm2): LayerNorm((512,), eps=1e-05, elementwise_affine=True)
      (mlp): Mlp(
        (fc1): Linear(in_features=512, out_features=512, bias=True)
        (act): GELU(approximate='none')
        (drop1): Dropout(p=0.0, inplace=False)
        (fc2): Linear(in_features=512, out_features=512, bias=True)
        (drop2): Dropout(p=0.0, inplace=False)
      )
    )
  )
  (norm): LayerNorm((512,), eps=1e-05, elementwise_affine=True)
  (decoder_embed): Linear(in_features=512, out_features=512, bias=True)
  (decoder_blocks): ModuleList(
    (0-7): 8 x Block(
      (norm1): LayerNorm((512,), eps=1e-05, elementwise_affine=True)
      (attn): Attention(
        (qkv): Linear(in_features=512, out_features=1536, bias=True)
        (attn_drop): Dropout(p=0.0, inplace=False)
        (proj): Linear(in_features=512, out_features=512, bias=True)
        (proj_drop): Dropout(p=0.0, inplace=False)
      )
      (drop_path): Identity()
      (norm2): LayerNorm((512,), eps=1e-05, elementwise_affine=True)
      (mlp): Mlp(
        (fc1): Linear(in_features=512, out_features=512, bias=True)
        (act): GELU(approximate='none')
        (drop1): Dropout(p=0.0, inplace=False)
        (fc2): Linear(in_features=512, out_features=512, bias=True)
        (drop2): Dropout(p=0.0, inplace=False)
      )
    )
  )
  (decoder_norm): LayerNorm((512,), eps=1e-05, elementwise_affine=True)
  (decoder_pred): Linear(in_features=512, out_features=425, bias=True)
)
2024-07-07 14:06:15,328 - Number of parameters: 51208618
2024-07-07 14:12:29,754 - -------------------------START-------------------------
2024-07-07 14:12:29,756 - CONFIG: {'data_dir': '/dev/shm/wht/datasets/things-eeg-small/Preprocessed_data_250Hz_whiten', 'exp_root': './exp', 'device': device(type='cuda', index=0), 'name': 'train_model_plot_subjec
…
